int_systems/Lab3/model.onnx (onnx, 2769 bytes, 8 tensors)

onnx::MatMul_33 f4 [7, 6]
000000 da 2e 9d be 41 30 99 3e c1 8e 79 be d6 c0 93 be
       -0.30699807 0.29919627 -0.24370863 -0.2885806
000010 20 a6 db 3c dd 13 aa 3e de fd 36 3e a5 2a b7 be
       0.026812613 0.3321828 0.1787028 -0.35774723
000020 29 f0 aa be e6 0e 26 3e bc 68 b4 3d 1f 7a 99 3e
       -0.33386353 0.16216621 0.08809039 0.29975984
000030 17 24 9a 3e 7c 91 a3 bd f7 5b b5 3e 40 ea 44 3d
       0.3010566 -0.07986733 0.35421726 0.04807496
000040 7e 87 17 3e b2 ac 01 3e 91 c2 b0 3e c1 19 97 3e
       0.1479778 0.12663534 0.34523442 0.29511836
000050 6b 63 b6 3e b1 63 76 be f6 e3 77 3e 28 96 89 be
       0.35622725 -0.24061467 0.24208054 -0.26872373
000060 9e 97 58 3e 80 ac 9f bb 70 69 8d bd b6 e9 aa be
       0.21151587 -0.0048728585 -0.06904876 -0.33381432
000070 97 1f 85 3e 5d e8 ad 3e 72 9d 41 3e 10 c7 ee bd
       0.26000664 0.33966342 0.18907717 -0.11659062
000080 8d 0c 91 be 08 67 c0 3d 3a 56 3c 3e cc 3b 9e 3d
       -0.28329888 0.09394652 0.18392268 0.07726249
000090 3c 19 96 3d 80 99 6c 3b 8c 84 a8 be 82 06 69 be
       0.07329032 0.0036102235 -0.32913625 -0.22756389
0000a0 52 83 45 be 40 9b 77 bd
       -0.19288376 -0.060450792

onnx::MatMul_34 f4 [6, 4]
000000 30 09 6a 3d 20 50 39 3c 82 6c a2 3e c0 54 ab bd
       0.057137668 0.011310607 0.3172341 -0.08365774
000010 99 4f 94 be 56 e4 b3 3e 60 26 c0 3c 9c 10 cc be
       -0.28966978 0.35135144 0.023455799 -0.39856422
000020 f0 7b c1 3d 58 49 0a be 5c 89 03 3e de bb af 3e
       0.09447467 -0.13504541 0.12845367 0.3432302
000030 a0 b9 c8 bc 9e fc b0 3e 4a 71 24 be 57 a5 89 be
       -0.024502575 0.34567732 -0.16058841 -0.26883957
000040 e0 c6 87 be 68 89 af 3e 98 4b 44 3d c8 08 70 bd
       -0.26518917 0.3428452 0.047923654 -0.058602124
000050 28 46 b1 3d 5c ad 74 3e 70 d4 b7 3e 1a 01 16 be
       0.08655959 0.23894256 0.35904264 -0.14648858

onnx::MatMul_35 f4 [4, 3]
000000 ae f4 e2 be be ef d2 3e 80 20 d4 3d 10 4b 15 be
       -0.443273 0.41198534 0.103577614 -0.14579415
000010 ca 15 fb 3e 52 fe e8 3e 02 c7 cb 3e 40 f3 36 be
       0.4904006 0.4550653 0.39800268 -0.1786623
000020 c0 14 64 bc 88 a2 8e 3e 7c 80 a2 3e 32 12 c3 be
       -0.013920963 0.27858377 0.3173865 -0.3809982

onnx::MatMul_36 f4 [3, 2]
000000 30 26 cd 3d a6 fe 8e be 8a 9c a9 be 3e 62 e4 be
       0.10017049 -0.27928656 -0.33127242 -0.44606203
000010 b6 61 13 be 48 f6 0a 3f
       -0.14392743 0.54282045

onnx::MatMul_37 f4 [2, 3]
000000 ec 9f 9d be 00 40 3e bc c9 26 33 3f 9f 62 21 3f
       -0.30786073 -0.0116119385 0.69981056 0.6304111
000010 56 f7 df 3e 69 a8 cf be
       0.4374339 -0.40558174

onnx::MatMul_38 f4 [3, 4]
000000 e0 47 9b bd 4e 9b 30 be 4c 74 0e 3f 08 19 09 3e
       -0.075820684 -0.17246744 0.55646205 0.13388455
000010 40 74 6c 3e 00 63 61 3e 8f 21 80 be 46 0e 0c 3f
       0.23091221 0.22010422 -0.25025603 0.5470928
000020 e6 fe 03 3f c0 02 f9 be 9e 83 1a be a8 97 00 3f
       0.5156082 -0.4863491 -0.1508927 0.5023141

onnx::MatMul_39 f4 [4, 6]
000000 d4 42 dd 3e 86 c3 d3 be 14 6a ff 3e 40 58 86 bc
       0.43215048 -0.4136011 0.4988562 -0.016399503
000010 52 77 b7 be a4 f9 c9 be a2 f4 96 be d0 45 93 be
       -0.35833222 -0.39448273 -0.29483515 -0.287642
000020 90 18 c0 bd 58 f5 41 be 22 ac c4 3e 58 f8 8b bd
       -0.09379685 -0.18941247 0.38412577 -0.06834477
000030 88 3c b7 3e 80 c7 1b be e8 96 30 3e ce 22 fa 3e
       0.3578837 -0.15212822 0.17245066 0.4885468
000040 f4 8c 60 be 90 c6 2f be b0 f9 90 3e 30 16 61 3e
       -0.2192877 -0.1716559 0.28315496 0.2198112
000050 98 0f 5d be 10 5a 9c be 5e 2a 90 3e d2 87 b2 be
       -0.2158798 -0.30537462 0.28157324 -0.34869248

onnx::MatMul_40 f4 [6, 7]
000000 5a de b0 3e a8 8c 99 3e c8 95 c4 3e a0 66 99 bd
       0.3454464 0.29990125 0.38395524 -0.07490277
000010 10 8f c2 bd 40 31 4b 3d 16 2d 85 be c8 e3 52 bd
       -0.09499943 0.049607515 -0.2601096 -0.05148676
000020 40 f7 b1 bb c5 9d 61 be 00 f0 ac 3b 58 67 2d 3e
       -0.005431086 -0.2203284 0.0052776337 0.16933954
000030 a8 cc d3 3d 9f 7c 75 be 8c e5 cd bd 8b 05 99 be
       0.103417695 -0.2397332 -0.10053548 -0.2988704
000040 04 59 8b bd 84 9e d7 bd 18 b4 71 3e 0c f9 64 3e
       -0.06804088 -0.10528281 0.23603857 0.22360629
000050 60 53 cd bc 70 87 6e bd e0 29 e0 bd 24 10 2f 3e
       -0.02506417 -0.058234632 -0.10945487 0.17096001
000060 98 da b7 3d b5 43 a4 be 86 cc b1 be 60 d3 c9 3d
       0.0897724 -0.32082906 -0.34726351 0.0985477
000070 b0 91 bb 3d 20 bf c3 3c 1a 9b 10 be 4c 54 a8 3d
       0.09158647 0.023894846 -0.14121667 0.08219203
000080 d8 db a6 3e e8 6e b4 3e d8 b9 23 be 3e a9 b7 be
       0.32589602 0.35240865 -0.15988863 -0.3587131
000090 3f 2f 97 be f0 a8 b7 bc 32 90 46 be 3e c2 be 3e
       -0.29528233 -0.022419423 -0.19390944 0.3725757
0000a0 0c ea ab 3e 91 f2 48 be
       0.33577 -0.19623782
